experiments/default/ckpt/ckpt-best.pth (torch_old, 488177 bytes, 18 tensors)

features.layer1.conv.weight f4 [64, 3, 3, 3]
-0.031823702 -0.011530152 0.043728985 0.023581622 0.18421957 0.16058537 0.15042618 -0.08436614
0.1477724 -0.015653554 -0.16754943 0.1804166 -0.03359683 -0.04379309 -0.035624105 0.06643285
0.19259708 0.05593756 0.12008473 -0.057779074 0.016239285 -0.076384015 0.010803698 0.160752
0.014163121 0.19038264 -0.08174973 0.12399274 0.028873224 0.15570079 -0.10092096 0.16955872
-0.07681798 0.17606233 0.109464765 -0.12926361 -0.16938467 -0.11099032 -0.059349734 0.08833433
0.022448791 0.16657957 -0.19196968 0.027188908 0.058825996 -0.05803981 0.17623828 -0.15840667
-0.14151542 0.1180365 0.15670405 -0.07099514 -0.1294322 -0.19120911 0.06927768 -0.1843686
0.19329329 -0.09732616 0.15814191 -0.012076387 -0.10658223 0.13881409 -0.15400565 0.16309866
-0.16618548 -0.12753075 0.040002145 -0.11749796 -0.06385082 -0.14306471 -0.12163479 0.045544893
0.1304127 -0.16415209 0.0069845417 0.11724168 -0.120809294 0.074779905 0.19412145 0.012947649
0.0914378 -0.15219674 -0.12752289 -0.16958311 0.11313043 -0.05464809 -0.08096215 0.1233724
0.18837377 0.14852567 0.16963588 0.050189544 -0.11047075 0.16516039 0.08465828 -0.09568355
-0.008324228 -0.18148628 -0.09736665 -0.0852039 0.08703763 0.06102068 -0.0207274 -0.06673277
-0.15556036 0.14265257 -0.011824014 0.03532359 -0.17618848 -0.058024358 -0.10681334 0.060674306
0.13810474 0.0057326686 -0.05390251 -0.099680096 -0.13033739 0.03545327 0.027835337 0.051760845
-0.049921017 0.16126284 -0.036546335 -0.050628673 -0.05122993 -0.062594086 0.15518844 -0.037974387
-0.15778553 0.024790406 -0.06360448 0.19343442 0.089652225 -0.15198274 -0.1019757 0.022475356
0.08995747 0.020980557 0.16569279 -0.022055658 0.017635139 -0.17985786 0.016942492 -0.011342783
0.08920844 -0.10255684 0.17973663 -0.122987926 -0.09525582 -0.1949608 0.033665255 0.0762168
-0.0750962 -0.18266442 0.024394318 0.061143465 -0.1092459 -0.1368103 0.09303464 0.17822592
0.16043901 0.11219179 -0.124560215 0.08454758 -0.13403964 -0.08772033 0.1470141 -0.117013946
0.065664075 -0.08133336 -0.020639742 -0.07737608 -0.18836421 0.14737321 -0.054691743 -0.121506
0.017663883 -0.050854586 -0.010548982 -0.010005041 -0.117727704 0.109102234 -0.16437763 0.13975705
-0.16961256 -0.080038615 0.11511554 -0.14766982 0.043464728 0.07131421 0.045379933 -0.19500464
-0.00052583707 0.019447356 -0.18272676 -0.15557782 -0.1908936 -0.05821169 0.07129998 0.101023026
0.10099561 -0.11917968 -0.06703119 -0.0024107313 -0.07892005 -0.105121344 -0.041047983 -0.10248496
-0.17456095 -0.109705664 0.12631321 -0.17076522 -0.01859749 -0.03321458 -0.1723975 0.022828348
0.16528663 0.1455201 -0.08099248 -0.11660004 0.17438658 0.001342234 -0.1770976 0.061300907
-0.18685995 -0.11056939 -0.1622457 0.13634662 0.09218393 -0.10780043 -0.037547085 0.117884025
-0.07863541 0.05208624 0.08553677 0.07718468 0.007555052 -0.17989028 -0.070369534 -0.02872553
0.08799633 0.17552486 -0.01852154 -0.040468358 0.008422301 0.036705658 0.03123216 8.9253466e-05
0.1343454 0.010219727 -0.15122412 -0.03644606 0.10797085 -0.07274857 0.12716533 0.15684675
00000000: 9259 02bd f6e8 3cbc 2a1d 333d 3f2e c13c
00000010: 0ea4 3c3e 7e70 243e 5209 1a3e 28c8 acbd
00000020: a651 173e e23b 80bc 1492 2bbe 21bf 383e
00000030: d49c 09bd 6260 33bd 95ea 11bd f20d 883d
00000040: 2b38 453e c81e 653d fcee f53d c0a9 6cbd
00000050: 4008 853c 396f 9cbd fe01 313c 2c9c 243e
00000060: 6f0c 683c abf3 423e 676c a7bd e8ef fd3d
00000070: 8a87 ec3c 0770 1f3e a6af cebd cda0 2d3e
00000080: bf52 9dbd af49 343e 102f e03d ae5d 04be
00000090: 2d73 2dbe e54e e3bd b518 73bd a1e8 b43d
000000a0: 87e6 b73c d693 2a3e b393 44be 46bb de3c
000000b0: 87f3 703d 27bb 6dbd cf77 343e 5c35 22be
000000c0: 6be9 10be 1fbd f13d 0777 203e e665 91bd
000000d0: e089 04be 52cc 43be 75e1 8d3d 1fcb 3cbe
000000e0: adee 453e f052 c7bd f4ef 213e 0adc 45bc
000000f0: c947 dabd 4825 0e3e a8b3 1dbe 5603 273e
00000100: 872c 2abe 6c97 02be 4ad9 233d c5a2 f0bd
00000110: 38c4 82bd 8e7f 12be a91b f9bd 488d 3a3d
00000120: e88a 053e 7c17 28be 95de e43b 681c f03d
00000130: dd6a f7bd 3526 993d c6c7 463e 6022 543c
00000140: be43 bb3d 76d9 1bbe 5c95 02be 32a7 2dbe
00000150: edb0 e73d add6 5fbd 7ccf a5bd abaa fc3d
00000160: 0ee5 403e 1d17 183e 07b5 2d3e 8d93 4d3d
00000170: 7d3e e2bd ce1f 293e 5261 ad3d bdf5 c3bd
00000180: 5862 08bc 8ad7 39be 2b68 c7bd 627f aebd
00000190: c940 b23d d2f0 793d 82cc a9bc 31ab 88bd
000001a0: 374b 1fbe 8413 123e 82b9 41bc 78af 103d
000001b0: c16a 34be f3aa 6dbd f4c0 dabd 9f85 783d
000001c0: 546b 0d3e 1cd9 bb3b e1c8 5cbd 1425 ccbd
000001d0: 2a77 05be 7337 113d ef06 e43c 2e03 543d
000001e0: fb79 4cbd 1622 253e 9cb1 15bd 0360 4fbd
000001f0: 7ad6 51bd 5431 80bd b8e9 1e3e 088b 1bbd
00000200: 8892 21be 4015 cb3c 1143 82bd ac13 463e
00000210: 969b b73d 5da1 1bbe a3d8 d0bd 3d1e b83c
00000220: 9f3b b83d 6bdf ab3c 5fab 293e 11ae b4bc
00000230: 9177 903c a92c 38be fbca 8a3c 15d7 39bc
00000240: eab2 b63d 5209 d2bd e10c 383e 18e1 fbbd
00000250: 7c15 c3bd cea3 47be 94e4 093d 8e17 9c3d
00000260: 09cc 99bd 620c 3bbe 98d6 c73c 9271 7a3d
00000270: 50bc dfbd 0018 0cbe f288 be3d db80 363e
00000280: 204a 243e cfc4 e53d 6d19 ffbd 4827 ad3d
00000290: b041 09be b7a6 b3bd dd8a 163e 02a5 efbd
000002a0: e37a 863d 1b92 a6bd ad14 a9bc 5a77 9ebd
000002b0: 8ce2 40be 01e9 163e 7304 60bd 23d8 f8bd
000002c0: d9b3 903c e64c 50bd a3d5 2cbc 2fec 23bc
000002d0: 391b f1bd fe70 df3d 9c52 28be 791c 0f3e
000002e0: eaae 2dbe 49eb a3bd b2c1 eb3d c236 17be
000002f0: 1208 323d 2f0d 923d 4fe0 393d 4caf 47be
00000300: 54d8 09ba 1050 9f3c b91c 3bbe cb4f 1fbe
00000310: 9d79 43be 626f 6ebd b905 923d 29e5 ce3d
00000320: c9d6 ce3d 7a14 f4bd a647 89bd 5cfd 1dbb
00000330: d6a0 a1bd dc49 d7bd ee21 28bd a2e3 d1bd
00000340: 1bc0 32be 5dad e0bd 4058 013e 14dd 2ebe
00000350: c359 98bc 030c 08bd f888 30be 8402 bb3c
00000360: e640 293e 3903 153e 63df a5bd 00cc eebd
00000370: 6592 323e e6ed af3a 1359 35be a916 7b3d
00000380: 3758 3fbe 3472 e2bd bd23 26be 739e 0b3e
00000390: eeca bc3d 79c6 dcbd f9ca 19bd 2e6d f13d
000003a0: 9a0b a1bd 6258 553d e72d af3d 0013 9e3d
000003b0: 5f90 f73b 2835 38be e71d 90bd cd51 ebbc
000003c0: 6b37 b43d cabc 333e 7cba 97bc 26c2 25bd
000003d0: b1fd 093c ac58 163d 96da ff3c 972d bb38
000003e0: d791 093e a470 273c 7fda 1abe 7748 15bd
000003f0: d21f dd3d 34fd 94bd a137 023e 6f9c 203e

features.layer1.conv.bias f4 [64]
-0.1495419 -0.15590575 0.108929455 -0.1720572 0.15274544 -0.094262145 0.1808272 0.080380544
0.09197439 -0.11327417 0.028261885 0.083407074 0.08632544 0.13094682 0.14974944 0.08501984
-0.095374234 0.055634905 0.050827384 -0.0643756 -0.11626624 -0.004813697 0.04778716 0.13934761
-0.10753453 -0.016240012 -0.13049948 -0.016306443 0.13917382 -0.16172981 0.050426133 0.10753926
-0.117071584 -0.18402198 -0.07885415 -0.12361889 0.15854892 0.17045656 -0.057044096 0.17935796
0.040411275 0.15702425 -0.029119432 0.11818105 -0.00958607 0.18798558 0.0780738 -0.13978595
0.04620769 -0.04069296 -0.09280578 0.07189506 -0.050132502 -0.04660766 0.043438353 0.18075763
0.06390936 -0.15630661 0.075309135 0.0703073 -0.13518485 0.1182592 0.028952366 -0.0035640835
00000000: 8321 19be c2a5 1fbe 6816 df3d c32f 30be
00000010: 4d69 1c3e 830c c1bd c42a 393e 8e9e a43d
00000020: 125d bc3d 4afc e7bd 7885 e73c 54d1 aa3d
00000030: 64cb b03d ec16 063e eb57 193e e21e ae3d
00000040: 9153 c3bd 6de1 633d 6030 503d 5bd7 83bd
00000050: ff1c eebd 38bc 9dbb 78bc 433d 24b1 0e3e
00000060: 103b dcbd c609 85bc a8a1 05be 1795 85bc
00000070: 9583 0e3e 809c 25be a28b 4e3d 8b3d dc3d
00000080: 3ac3 efbd 4270 3cbe 497e a1bd e72b fdbd
00000090: a65a 223e 2a8c 2e3e 12a7 69bd 9da9 373e
000000a0: 4b86 253d f7ca 203e e08b eebc e808 f23d
000000b0: e40e 1dbc 4b7f 403e 28e5 9f3d 0c24 0fbe
000000c0: 4644 3d3d a9ad 26bd f510 bebd b83d 933d
000000d0: bd57 4dbd ace7 3ebd 6aec 313d 8718 393e
000000e0: e9e2 823d d70e 20be ad3b 9a3d 46fd 8f3d
000000f0: e66d 0abe e131 f23d 832d ed3c 6693 69bb

features.layer1.norm.weight f4 [64]
0.99888796 1.0043567 1.0029312 1.0030731 0.9950861 1.0017893 0.9905706 0.9964485
1.0034009 1.0006771 0.993021 1.0016569 1.001447 1.0008601 0.99985194 1.0021725
0.9932115 1.002003 1.0155934 0.9989179 0.9937657 0.99602705 1.0034598 0.99650127
0.99185455 1.001556 0.99936354 1.0016917 0.99902886 0.9963209 0.9942942 0.9978593
0.9992491 0.9965569 0.9960237 1.0061309 0.99937314 0.9976089 1.0076607 0.98937196
0.99860215 1.0003268 1.0122681 0.99615926 1.0017675 0.99686396 1.0043914 1.002125
1.0080132 1.0013769 0.9973785 1.0083117 1.0009924 0.9979902 1.0039963 0.9896583
1.0033461 1.0061818 0.9973884 1.0014911 0.9925272 0.9938399 0.9902023 0.9925704
00000000: 1fb7 7f3f c38e 803f 0d60 803f b364 803f
00000010: f6bd 7e3f a23a 803f 0996 7d3f 4017 7f3f
00000020: 716f 803f 3016 803f a036 7e3f 4b36 803f
00000030: 6a2f 803f 2f1c 803f 4cf6 7f3f 3047 803f
00000040: 1c43 7e3f a241 803f f7fe 813f 15b9 7f3f
00000050: 6e67 7e3f a1fb 7e3f 5f71 803f b51a 7f3f
00000060: 2eea 7d3f fd32 803f 4ad6 7f3f 6f37 803f
00000070: 5bc0 7f3f e30e 7f3f 118a 7e3f b573 7f3f
00000080: cace 7f3f 5a1e 7f3f 69fb 7e3f e6c8 803f
00000090: ebd6 7f3f 4c63 7f3f 07fb 803f 7b47 7d3f
000000a0: 64a4 7f3f b50a 803f 0092 813f 4b04 7f3f
000000b0: eb39 803f 7a32 7f3f e68f 803f a245 803f
000000c0: 9406 813f 1e2d 803f 3354 7f3f 5c10 813f
000000d0: 8520 803f 497c 7f3f f382 803f 3f5a 7d3f
000000e0: a56d 803f 91ca 803f d954 7f3f dc30 803f
000000f0: 4316 7e3f 4b6c 7e3f e67d 7d3f 1819 7e3f

features.layer1.norm.bias f4 [64]
0.0056284196 0.005393199 -0.0016457775 0.0062828553 -0.008056485 -0.00073691475 -0.006098505 -0.0020984863
-0.0010660758 0.0089669535 -0.004461744 -0.005803451 -0.0037447298 -0.0015975008 0.0025839126 0.006832388
0.0011006632 0.0045557185 0.017793652 0.008025595 -0.0043156627 -0.00179307 0.005140781 -0.0048521287
-0.0032174014 0.0031072693 0.010988558 0.00886561 -0.0002522523 -0.0046536108 0.0007160852 0.00064841093
0.0025813945 0.00473809 0.00978911 0.000745372 0.004809797 0.000548827 0.001805786 -0.00432165
-0.0024905442 -0.0026361127 -0.002606853 -0.0027430458 0.006526826 -0.0053179804 -0.006811162 -0.007177135
-0.0013671502 -0.0018772028 -0.0070121894 0.012216567 0.01053513 -0.0005004545 0.005744477 -0.0060318643
-0.0010998868 0.00423776 0.013726112 0.0017492877 -0.0058477526 -0.0015942791 -0.00013648838 -0.005823218
00000000: 9b6e b83b 6fb9 b03b 21b7 d7ba 69e0 cd3b
00000010: 59ff 03bc 832d 41ba f8d5 c7bb c286 09bb
00000020: 91bb 8bba 21ea 123c d233 92bb e02a bebb
00000030: 246a 75bb 3b63 d1ba dc56 293b 3ae2 df3b
00000040: 2144 903a 2348 953b fec3 913c c97d 033c
00000050: 676a 8dbb 7205 ebba ff73 a83b 9bfe 9ebb
00000060: 0adb 52bb 54a3 4b3b 5a09 343c 1041 113c
00000070: bb40 84b9 517d 98bb aab7 3b3a 1ffa 293a
00000080: 9d2c 293b fb41 9b3b 8162 203c 1165 433a
00000090: 809b 9d3b 28df 0f3a 20b0 ec3a a19c 8dbb
000000a0: 6638 23bb a2c2 2cbb bcd7 2abb acc4 33bb
000000b0: fcde d53b 7442 aebb 2b30 dfbb 2c2e ebbb
000000c0: f331 b3ba 790c f6ba 82c6 e5bb ff27 483c
000000d0: 8a9b 2c3c ef30 03ba 2a3c bc3b f2a6 c5bb
000000e0: 142a 90ba e8dc 8a3b 7de3 603c 5b48 e53a
000000f0: 819e bfbb 21f7 d0ba 521e 0fb9 b1d0 bebb

features.layer2.conv.weight f4 [64, 64, 3, 3]
0.0132970335 -0.031942006 -0.015215319 -0.031018248 -0.030341938 -0.010173827 0.0053041205 -0.0009965749
-0.029858422 0.00062209985 0.021745283 -0.03502769 0.036972154 -0.034893997 -0.029530145 -0.032352425
0.026589567 -0.0076351385 -0.023552988 0.01741312 0.031182434 0.031086944 -0.0043032323 0.024558235
0.016616268 -0.0050146338 0.036068935 0.01986436 0.0009077292 0.028122978 0.0070229257 -0.0015418535
0.03578396 -0.018013893 -0.015730573 0.02346081 -0.018518994 -0.0062778625 -0.03159594 0.04178167
0.040409245 -0.006657399 -0.0007128948 0.04093976 -0.012336121 0.04079455 0.012888733 -0.0067965714
0.031134656 -0.026146602 0.008022526 0.012088166 0.021062968 0.038328644 0.007815952 -0.017869692
-0.015426107 -0.038460903 0.009515462 -0.024011418 0.03610664 0.02542265 0.04169715 -0.014649565
-0.019157944 0.02385302 -0.025332358 0.011284365 0.03783583 0.030879743 0.0018346228 0.03971988
0.026652984 0.018684413 0.0029809147 -0.037395205 0.026285619 -0.02660401 0.007357965 0.010691083
0.032296274 0.015503528 -0.025635552 -0.02699359 -0.021112889 0.014903081 -0.022119647 0.038805336
0.012033654 -0.0018114472 0.027515348 -0.0052280705 0.015195212 -0.0084863985 -0.021206178 -0.0023266014
-0.03769413 -0.0029911955 -0.038821846 -0.011780725 0.018494124 -0.0015289712 0.010943855 0.014929219
-0.04034116 -0.0329229 0.03662896 -0.03613336 0.028346963 -0.0118528 0.0012402197 0.024905045
-0.026851505 -0.02756962 0.012554224 0.03193159 -0.008569793 -0.017985515 0.022609085 0.03805539
0.004102071 -0.037321478 -0.030016232 -0.0062064906 0.013672184 0.0017513497 -0.005890402 0.011499338
-0.033523392 -0.025408031 -0.0030925365 0.014966168 -0.016399683 -0.035076063 -0.034607835 0.015744941
0.008503855 0.012458886 -0.025394121 -0.03909095 0.032249503 -0.04070521 0.038053352 -0.03232988
-0.021519555 -0.031391326 0.023631547 -0.011078957 0.03136957 -0.01491043 -0.02301525 -0.01423946
-0.02851147 -0.0348651 -0.038017906 0.03503379 0.034792066 0.044667073 -0.022946177 -0.03770003
-0.011696743 0.0117027955 -0.030534733 -0.024290735 -0.029309766 0.03670652 -0.00039588398 0.022622969
-0.035158515 0.0016666589 0.029612165 -0.038758628 -0.012410397 0.02512773 0.021302769 0.018516852
-0.015809247 -0.0014869898 0.025291383 0.032707628 -0.007536058 0.03420967 0.030685859 -0.01355976
-0.0054719853 0.010113582 0.034766626 -0.002662879 -0.038803235 0.03632548 -0.03988178 0.0070959763
-0.0175464 -0.040453255 -0.019695532 -0.0028609207 -0.0017995327 -0.0196625 -0.023587571 0.0044323336
-0.030440116 0.022085369 -0.032743156 0.0062443945 0.031558227 -0.021576177 0.011312413 -0.017507961
-0.03136706 -0.012709728 0.025059441 -0.006710572 0.023539072 -0.018372446 0.021572318 0.038338043
0.004313895 0.010468654 0.023624878 -0.033799943 0.024925664 -0.030997131 0.014092179 0.023270214
-0.03684308 -0.009436831 -0.038225207 -0.01958279 0.013465141 0.0021144166 -0.023288919 -0.0024196974
-0.018464424 0.0019232458 -0.025619399 0.04188079 -0.01894791 0.02392382 -0.035689533 -0.025791585
-0.019439062 0.030169731 -0.0044367784 0.04572522 0.020953046 -0.0002739967 0.040837407 -0.018425142
-0.0013410643 0.00579532 -0.0012702532 -0.03192895 0.00078983174 0.0071913204 0.020487865 0.022398053
00000000: cddb 593c 9fd5 02bd ac49 79bc fb19 febc
00000010: a88f f8bc 20b0 26bc 30ce ad3b 819f 82ba
00000020: a699 f4bc 6a14 233a 2a23 b23c 3279 0fbd
00000030: 1d70 173d 02ed 0ebd 34e9 f1bc fa83 04bd
00000040: 5dd2 d93c 2f30 fabb 32f2 c0bc f6a5 8e3c
00000050: 4e72 ff3c 0caa fe3c 2102 8dbb 5a2e c93c
00000060: d71e 883c cc51 a4bb 05bd 133d 95ba a23c
00000070: adf4 6d3a 2962 e63c 9220 e63b 0518 caba
00000080: 3492 123d df91 93bc 67dd 80bc e230 c03c
00000090: 25b5 97bc 87b6 cdbb bf6a 01bd 4223 2b3d
000000a0: 2a84 253d 4f26 dabb 8fe1 3aba 73b0 273d
000000b0: 711d 4abc 3018 273d 442b 533c c6b5 debb
000000c0: 1b0e ff3c 6631 d6bc ea70 033c 710d 463c
000000d0: 3f8c ac3c 7ffe 1c3d 7b0e 003c 7663 92bc
000000e0: c8bd 7cbc 2e89 1dbd bee6 1b3c 98b3 c4bc
000000f0: 8ee4 133d 2943 d03c a1ca 2a3d bb04 70bc
00000100: 1ff1 9cbc 6967 c33c ce85 cfbc 0fe2 383c
00000110: bef9 1a3d 84f7 fc3c ba77 f03a 50b1 223d
00000120: 5c57 da3c 0e10 993c 735b 433b b72b 19bd
00000130: f054 d73c a7f0 d9bc 161b f13b a729 2f3c
00000140: 1949 043d 8202 7e3c a601 d2bc a921 ddbc
00000150: f0f4 acbc 0d2c 743c 4334 b5bc 58f2 1e3d
00000160: ce28 453c 156e edba de67 e13c 3c50 abbb
00000170: 57f5 783c 890a 0bbc 94b8 adbc e579 18bb
00000180: 2965 1abd ef07 44bb a803 1fbd f103 41bc
00000190: fd80 973c c367 c8ba db4d 333c af99 743c
000001a0: c63c 25bd 2ada 06bd 4008 163d 9300 14bd
000001b0: e437 e83c 3f32 42bc de8e a23a aa05 cc3c
000001c0: b0f7 dbbc afd9 e1bc 3bb0 4d3c b3ca 023d
000001d0: 5168 0cbc 5c56 93bc b036 b93c f8df 1b3d
000001e0: aa6a 863b 68de 18bd 9ae4 f5bc d15f cbbb
000001f0: 4c01 603c 8b8d e53a 4604 c1bb b867 3c3c
00000200: d34f 09bd 8124 d0bc 27ac 4abb a934 753c
00000210: a158 86bc ebab 0fbd f2c0 0dbd 89fb 803c
00000220: c153 0b3c 5b20 4c3c 5507 d0bc d51d 20bd
00000230: 0e18 043d 82ba 26bd d5dd 1b3d 566c 04bd
00000240: c749 b0bc 3194 00bd f296 c13c 8384 35bc
00000250: 617d 003d e04a 74bc 7a8a bcbc a04c 69bc
00000260: e390 e9bc b5ce 0ebd aab8 1bbd 977f 0f3d
00000270: 2082 0e3d d2f4 363d 9ff9 bbbc 596b 1abd
00000280: b2a3 3fbc 15bd 3f3c fa23 fabc 5dfd c6bc
00000290: 091b f0bc 9359 163d a68e cfb9 ce53 b93c
000002a0: 6002 10bd cb73 da3a 3695 f23c 5ec1 1ebd
000002b0: fa54 4bbc abd8 cd3c 2583 ae3c a7b0 973c
000002c0: 6582 81bc 19e7 c2ba e02f cf3c 6ff8 053d
000002d0: 09f1 f6bb 701f 0c3d e960 fb3c c129 5ebc
000002e0: 574e b3bb 70b3 253c 7367 0e3d b283 2ebb
000002f0: 24f0 1ebd 07ca 143d 145b 23bd 5d85 e83b
00000300: 78bd 8fbc 50b2 25bd 8658 a1bc 497e 3bbb
00000310: 4cde ebba 4013 a1bc b93a c1bc 1c3d 913b
00000320: 8d5d f9bc 60ec b43c b01d 06bd c79d cc3b
00000330: 3343 013d 86c0 b0bc b357 393c db6c 8fbc
00000340: bf7a 00bd 773c 50bc 7549 cd3c 5ce4 dbbb
00000350: 03d5 c03c d081 96bc 6eb8 b03c 5a08 1d3d
00000360: 935b 8d3b b884 2b3c f688 c13c cf71 0abd
00000370: e830 cc3c b2ed fdbc e2e2 663c 2da1 be3c
00000380: c5e8 16bd f09c 1abc 0992 1cbd 166c a0bc
00000390: e59c 5c3c 0692 0a3b 67c8 bebc c993 1ebb
000003a0: b442 97bc 6c15 fc3a c6df d1bc 318b 2b3d
000003b0: a638 9bbc e3fb c33c 302f 12bd e048 d3bc
000003c0: ab3e 9fbc 8326 f73c 6562 91bb 5e4a 3b3d
000003d0: b9a5 ab3c 37a7 8fb9 2045 273d 53f0 96bc
000003e0: a7c6 afba abe6 bd3b a07e a6ba eec7 02bd
000003f0: b60c 4f3a 2ba5 eb3b 2bd6 a73c 1f7c b73c

features.layer2.conv.bias f4 [64]
0.028238535 -0.030362528 0.011483309 -0.021629332 -0.00029483307 0.019481026 0.031381365 -0.0045023584
0.01133849 0.03399698 0.0014613556 -0.011497996 0.010567963 0.00061319536 -0.03723456 -0.043020867
-0.0022848512 -0.008269058 0.032058485 0.03474126 0.035807554 -0.016330812 0.031235443 0.02697848
-0.035420015 0.0012962471 -0.020369316 -0.017162686 -0.038484488 0.03853131 0.040430233 0.0018432087
0.034368444 -0.025830897 -0.027438454 -0.03375836 -0.019181868 0.0013149023 0.006842498 0.026879722
-0.0074491412 -0.03669538 0.028733855 -0.012228959 -0.011703654 -0.0067320336 -0.040155392 0.027533505
-0.03550231 -0.02826425 0.002305273 0.02066333 -0.036767825 -0.026290275 0.006600751 0.028853968
0.04064021 0.005983737 0.025656553 -0.015494524 -0.007990699 0.01175176 0.004270202 -0.003708195
00000000: 8054 e73c d6ba f8bc 7d24 3c3c ff2f b1bc
00000010: d393 9ab9 ac96 9f3c bf89 003d 8588 93bb
00000020: 13c5 393c 6b40 0b3d f58a bf3a 1762 3cbc
00000030: 4025 2d3c d8be 203a 4483 18bd a636 30bd
00000040: 71bd 15bb f17a 07bc c24f 033d da4c 0e3d
00000050: f1aa 123d 32c8 85bc 79e1 ff3c f901 dd3c
00000060: 9414 11bd d6e6 a93a 8ddd a6bc c398 8cbc
00000070: e9a1 1dbd 02d3 1d3d 2c9a 253d d297 f13a
00000080: edc5 0c3d 519b d3bc 9cc6 e0bc 3546 0abd
00000090: 4b23 9dbc cd58 ac3a 0937 e03b dd32 dc3c
000000a0: ed17 f4bb e54d 16bd 4363 eb3c f95b 48bc
000000b0: afc0 3fbc 6498 dcbb fb79 24bd f28d e13c
000000c0: df6a 11bd 6e8a e7bc 1014 173b 2546 a93c
000000d0: dc99 16bd b45e d7bc 1d4b d83b 285f ec3c
000000e0: 5976 263d 3913 c43b b12d d23c bedc 7dbc
000000f0: 6ceb 02bc 748a 403c 0ded 8b3b 3005 73bb

features.layer2.norm.weight f4 [64]
1.0009688 0.9952322 1.0033387 0.9981166 1.0009724 1.002133 1.0032648 1.007716
0.9933441 1.008666 0.99609 1.0037524 0.9968492 0.9979716 1.0075803 1.0006182
1.0039473 1.0101683 1.0012866 0.9959162 1.0069569 0.9936524 1.0051638 1.007534
1.0160502 0.99154085 0.9969333 1.0074652 0.99615973 0.9985426 0.99906313 0.9984081
1.0020128 1.0006016 1.0043162 1.0011946 1.0024178 0.9971025 0.9993776 0.99856246
0.9942831 0.9901357 0.9977155 0.9951928 1.007928 0.9880378 0.9941106 0.9916488
1.0029147 1.0007337 1.0027002 1.0018735 0.999957 0.99258095 0.996872 0.99723315
1.0074304 0.9919282 1.0015345 0.9985166 1.001217 0.99593127 0.99482256 0.99974567
00000000: bf1f 803f 8ac7 7e3f 676d 803f 9284 7f3f
00000010: dd1f 803f e545 803f fb6a 803f d6fc 803f
00000020: cd4b 7e3f f81b 813f c1ff 7e3f f57a 803f
00000030: 8231 7f3f 117b 7f3f 64f8 803f 4214 803f
00000040: 5881 803f 324d 813f 292a 803f 5df4 7e3f
00000050: f7e3 803f 0160 7e3f 35a9 803f e0f6 803f
00000060: ef0d 823f 9fd5 7d3f 0537 7f3f 9ff4 803f
00000070: 5304 7f3f 7da0 7f3f 9ac2 7f3f ac97 7f3f
00000080: f541 803f b713 803f 6f8d 803f 2527 803f
00000090: 3a4f 803f 1c42 7f3f 36d7 7f3f caa1 7f3f
000000a0: 5689 7e3f 8979 7d3f 486a 7f3f f5c4 7e3f
000000b0: c903 813f 0cf0 7c3f 087e 7e3f b2dc 7d3f
000000c0: 825f 803f 0b18 803f 7b58 803f 643d 803f
000000d0: 2ffd 7f3f c919 7e3f 0133 7f3f ac4a 7f3f
000000e0: 7bf3 803f 02ef 7d3f 4832 803f c99e 7f3f
000000f0: e127 803f 5af5 7e3f b1ac 7e3f 55ef 7f3f

features.layer2.norm.bias f4 [64]
0.0034837164 0.0016260396 0.010933908 -0.0017476765 0.004240106 0.0032620777 0.0023574694 0.0032694316
-0.00070739037 0.002969575 -0.003115812 0.0009524602 -0.0038431159 0.006261522 -0.0018232454 -0.0008868779
-0.0022287944 0.00523864 -0.00012900097 0.0044859867 0.006391931 0.0015035889 0.004439947 -0.0018422541
0.006232977 -0.0074299285 -0.004370047 0.011505326 0.00654635 0.0028241226 -0.0009204662 0.006714079
-0.008130166 0.00024640173 0.0044200197 0.00031769078 0.0022466043 -0.0076521686 0.0049250424 0.0012642156
0.0027405145 -0.009402855 -0.0040201186 -0.003729483 0.0033286929 -0.0083012935 -0.0020644749 -0.0025576812
0.003158919 0.0017033962 0.007378512 0.0036929296 0.00032481333 -0.0015548919 0.0039126743 -0.0021363
0.0025227275 -0.0048586684 0.0006549502 -0.0008270971 0.0050647655 -0.0017021532 0.0019445065 0.008659638
00000000: 104f 643b d620 d53a 2224 333c 4b12 e5ba
00000010: 96f0 8a3b 95c8 553b c67f 1a3b f643 563b
00000020: 2a70 39ba 349d 423b a732 4cbb 86ae 793a
00000030: c9dc 7bbb 742d cd3b f7f9 eeba 5e7d 68ba
00000040: f710 12bb e6a8 ab3b 6f44 07b9 2fff 923b
00000050: 6773 d13b 1214 c53a fa7c 913b ca77 f1ba
00000060: 003e cc3b c276 f3bb 9c32 8fbb d680 3c3c
00000070: c482 d63b ea14 393b 714b 71ba c701 dc3b
00000080: 6334 05bc 7b2f 8139 d0d5 903b bc8f a639
00000090: c43b 133b 0bbf fabb 4062 a13b 09b4 a53a
000000a0: 349a 333b 6f0e 1abc 33bb 83bb 586a 74bb
000000b0: 3326 5a3b 2602 08bc 244c 07bb c59e 27bb
000000c0: de05 4f3b 7e44 df3a 72c7 f13b 1405 723b
000000d0: b54b aa39 84cd cbba e435 803b 2b01 0cbb
000000e0: 5854 253b 7735 9fbb f7b0 2b3a 8cd1 58ba
000000f0: 55f6 a53b c91a dfba d0de fe3a 28e1 0d3c

features.layer3.conv.weight f4 [64, 64, 3, 3]
0.028423492 -0.03724967 0.0027458593 -0.002745008 0.007880021 0.00037974137 0.0042344052 -0.01871621
-0.005742865 0.026993807 0.03163948 0.017201802 0.0006451664 0.035464108 -0.007463767 0.005947745
-0.023355868 -0.024806539 0.04022638 -0.012506976 0.020327235 0.009126542 0.0062455055 0.03402098
-0.0024233775 -0.016980227 0.034380812 -0.013237192 0.022561936 0.019925846 0.009777009 0.00679789
-0.025418991 0.0023953342 0.023670537 -0.004286919 0.027701417 0.031791523 0.034631226 0.014623664
0.008078953 -0.040281754 -0.014251277 -0.030593859 -0.041786846 -0.033891134 0.024553476 -0.005440495
-0.02413642 -0.016443929 -0.021429984 0.008770425 -0.012912457 -0.0030537625 -9.001403e-05 0.018169437
-0.034635756 0.0035612436 -0.0148327015 0.037352312 0.011531152 0.036667738 -0.00019436287 -0.027397905
-0.030610802 0.032200653 0.034420263 0.004106667 0.01941411 -0.0004027256 0.031270944 0.023980355
0.021748275 -0.002820339 -0.00707311 0.037798133 -0.012639052 -0.044220712 0.026582679 0.012191394
-0.026674913 -0.040131245 -0.025075896 -0.005864958 0.021333823 0.030022196 -0.036997594 -0.010891891
-0.014517258 -0.013507365 -0.012222136 0.03346347 -0.03746685 0.038938858 0.005804065 -0.033130705
0.04222981 -0.03164407 0.029729431 -0.034387667 -0.036107957 -0.020508895 -0.017302815 -0.015362004
-0.013043028 -0.02081836 -0.030096998 -0.027795367 0.0133093605 -0.023530552 0.031119531 0.0044903145
-0.0360981 0.037574355 -0.026596662 -0.019530049 0.005230975 0.020761019 0.0458632 0.01497526
0.018452462 -0.024770666 0.048786223 -0.0036677327 0.032946426 0.011854938 0.031942315 -0.02007955
-0.02346132 -0.023948804 -0.026194867 0.009485201 -0.005392988 0.022138018 -0.0053467033 -0.02733388
-0.016442547 -0.004644657 0.00361918 0.019660998 -0.018747265 -0.023044536 -0.009898497 -0.024635142
0.031614788 -0.039860286 -0.03612583 0.029416705 -0.042129036 0.018985946 -0.041371167 0.02247992
-0.03787432 -0.017443566 0.01874691 0.041396096 -0.023540659 0.025098966 -0.030004764 0.026001688
-0.012117024 -0.0065415194 0.024274977 -0.04448045 0.03159585 -0.0390379 -0.044432104 -0.03710645
-0.010680606 -0.022644889 -0.021129962 -0.020183578 0.01295213 0.0007264324 -0.040172216 -0.022762673
0.02306475 -0.036143556 0.008259006 0.02625536 0.010714149 0.012803448 -0.032779075 0.017609546
-0.010482549 -0.028861674 7.020613e-05 -0.0024009936 -0.0055308603 0.02302321 0.022479411 0.02351708
0.020396108 -0.022408815 0.019559573 -0.024538647 0.024383856 0.00095394015 -0.04275098 -0.03060568
-0.020121744 0.0104426695 -0.03959299 -0.011609666 -0.014246325 0.023133617 0.031035768 0.013576083
-0.0035288362 0.01563051 0.022718463 0.0023425403 0.021569027 -0.0116535695 0.03633606 -0.035902567
0.026608456 0.0010297158 -0.03197565 -0.009803744 -0.008588135 0.0014334922 -0.01477785 0.01799644
0.0042685065 -0.0030610845 0.03216626 -0.0094405655 -0.026514737 0.018169137 -0.034808632 -0.019303462
0.025409197 -0.009511596 0.02225166 -0.025871694 -0.019040441 0.006187895 -0.031884976 0.0019042005
-0.026347863 -0.0020964674 -0.018513042 0.013567672 -0.037435506 -0.019597929 -0.0017672927 0.04051014
0.041120794 -0.0061685094 0.036300477 -0.027869118 0.044767566 0.0057732314 0.006281982 -0.0060342946
00000000: 62d8 e83c 1c93 18bd e0f3 333b 98e5 33bb
00000010: 341b 013c 0618 c739 c4c0 8a3b bd52 99bc
00000020: a52e bcbb 1e22 dd3c 6698 013d cbea 8c3c
00000030: 6220 293a d042 113d 9e92 f4bb 4de5 c23b
00000040: ce54 bfbc 1537 cbbc 6bc4 243d 0fea 4cbc
00000050: 4d85 a63c 7e87 153c 19a7 cc3b 9559 0b3d
00000060: 87d1 1ebb 1e1a 8bbc e5d2 0c3d cfe0 58bc
00000070: cfd3 b83c 873b a33c bf2f 203c d6c0 de3b
00000080: 7d3b d0bc 0afb 1c3b b7e8 c13c 4879 8cbb
00000090: 15ee e23c d437 023d 79d9 0d3d 1898 6f3c
000000a0: 965d 043c 7bfe 24bd 307e 69bc f99f fabc
000000b0: af28 2bbd 6ed1 0abd 5f24 c93c 2e46 b2bb
000000c0: beb9 c5bc 6bb5 86bc ef8d afbc d4b1 0f3c
000000d0: c58e 53bc a221 48bb eac5 bcb8 12d8 943c
000000e0: 39de 0dbd c163 693b dc04 73bc bdfe 183d
000000f0: 28ed 3c3c e930 163d e3cd 4bb9 9271 e0bc
00000100: 81c3 fabc d5e4 033d 43fc 0c3d 3891 863b
00000110: 570a 9f3c ea24 d3b9 f615 003d 7372 c43c
00000120: 7029 b23c 70d5 38bb 8cc5 e7bb 37d2 1a3d
00000130: 0714 4fbc c720 35bd ebc3 d93c 6abe 473c
00000140: 5985 dabc a960 24bd f76b cdbc d52e c0bb
00000150: 45c4 ae3c 1cf1 f53c ca8a 17bd e773 32bc
00000160: cbd9 6dbc ff4d 5dbc 5b3f 48bc fe10 093d
00000170: d776 19bd 5a7e 1f3d 0730 be3b 10b4 07bd
00000180: 2af9 2c3d 369d 01bd 238b f33c 15da 0cbd
00000190: f0e5 13bd 4502 a8bc a2be 8dbc eab0 7bbc
000001a0: 6db2 55bc 448b aabc fb8d f6bc 1cb3 e3bc
000001b0: 810f 5a3c 25c3 c0bc 63ee fe3c 7d23 933b
000001c0: 9adb 13bd 91e7 193d 3ee1 d9bc 7bfd 9fbc
000001d0: 9968 ab3b 0313 aa3c 0ddb 3b3d cb5a 753c
000001e0: 9e29 973c daeb cabc 10d4 473d 585e 70bb
000001f0: d5f2 063d 373b 423c f2d5 023d de7d a4bc
00000200: f431 c0bc 4830 c4bc 9e96 d6bc d167 1b3c
00000210: aab7 b0bb ca5a b53c 6633 afbb 4deb dfbc
00000220: 85b2 86bc 3532 98bb c42f 6d3b 1a10 a13c
00000230: dd93 99bc e5c7 bcbc 4e2d 22bc a3cf c9bc
00000240: 827e 013d 8a44 23bd aef8 13bd 4dfb f03c
00000250: 7f8f 2cbd 6a88 9b3c d074 29bd cf27 b83c
00000260: 1a22 1bbd cfe5 8ebc 1f93 993c f48e 293d
00000270: 57d8 c0bc 599c cd3c 8dcc f5bc 7e01 d53c
00000280: 7b86 46bc 3e5a d6bb 51dc c63c 2231 36bd
00000290: a66a 013d 34e6 1fbd 70fe 35bd effc 17bd
000002a0: b5fd 2ebc c681 b9bc be18 adbc 0858 a5bc
000002b0: 2c35 543c 0e6e 3e3a 9f8b 24bd c978 babc
000002c0: 49f2 bc3c 440b 14bd c850 073c 7b15 d73c
000002d0: 668a 2f3c 8ec5 513c 5a43 06bd e541 903c
000002e0: ffbe 2bbc 516f ecbc a13b 9338 fd59 1dbb
000002f0: 383c b5bb 2c9b bc3c be26 b83c e4a6 c03c
00000300: bd15 a73c b192 b7bc 663b a03c 4605 c9bc
00000310: a7c0 c73c d711 7a3a a71b 2fbd c3b8 fabc
00000320: 5bd6 a4bc bb17 2b3c 422c 22bd 7836 3ebc
00000330: 6b69 69bc b682 bd3c b93e fe3c 386e 5e3c
00000340: 0c44 67bb 8e0b 803c 121c ba3c 4e85 193b
00000350: 87b1 b03c 9dee 3ebc 1fd5 143d 920e 13bd
00000360: faf9 d93c 87f7 863a e6f8 02bd e29f 20bc
00000370: 40b5 0cbc 04e4 bb3a cc1e 72bc 456d 933c
00000380: d4de 8b3b 7a9c 48bb c5c0 033d 9aac 1abc
00000390: 6f35 d9bc 71d7 943c 7f93 0ebd 4b22 9ebc
000003a0: f326 d03c 86d6 1bbc 1d49 b63c e0f0 d3bc
000003b0: b3fa 9bbc d3c3 ca3b d299 02bd 5e96 f93a
000003c0: 79d7 d7bc e364 09bb aaa8 97bc f14a 5e3c
000003d0: f955 19bd d68b a0bc 81a4 e7ba f6ed 253d
000003e0: 476e 283d 3521 cabb cfaf 143d c74d e4bc
000003f0: 325e 373d 602d bd3b 16d9 cd3b 55bb c5bb

features.layer3.conv.bias f4 [64]
0.012314516 -0.030495029 0.019657932 -0.024825534 -0.034111448 0.03555374 0.014769576 0.0006877734
0.02206073 -0.03110146 -0.027600415 -0.00888522 -0.02710191 -0.013775494 0.008683719 0.01583493
-0.0058134366 -0.017888516 0.0043997844 -0.0062173265 -0.01947088 -0.035968207 -0.0043509277 0.0008119033
-0.007368595 -0.0040307553 0.04164672 0.03462558 0.0223788 -0.021680988 0.014978906 0.012630362
-0.005634387 0.01851605 0.029381016 -0.03320061 -0.031638518 -0.027919764 0.01700115 -0.006634401
-0.036744263 -0.027343787 -0.013096134 0.040989485 -0.025325678 0.010925471 0.029476946 -0.002545794
0.024949213 0.018734911 -0.023242192 0.033964187 0.031667314 -0.0062538674 -0.0031080483 -0.021856397
0.0024488785 -0.012854093 -0.039083235 -0.001996746 0.005183296 -0.007677031 0.024141362 0.016422607
00000000: d3c2 493c b6d0 f9bc ac09 a13c eb5e cbbc
00000010: 72b8 0bbd cca0 113d 17fc 713c b14b 343a
00000020: b4b8 b43c 7dc8 febc 441a e2bc 5093 11bc
00000030: d304 debc 9cb2 61bc 2846 0e3c 41b8 813c
00000040: a47e bebb f08a 92bc 112c 903b b7ba cbbb
00000050: 6581 9fbc 6653 13bd 3a92 8ebb e8d5 543a
00000060: 4174 f1bb 6d14 84bb c095 2a3d 8dd3 0d3d
00000070: bf53 b73c 549c b1bc 166a 753c 94ef 4e3c
00000080: aaa0 b8bb f9ae 973c 75b0 f03c 5dfd 07bd
00000090: 6497 01bd fdb7 e4bc ff45 8b3c 6465 d9bb
000000a0: 2781 16bd 1400 e0bc 2b91 56bc 97e4 273d
000000b0: cc77 cfbc bf00 333c a379 f13c 56d7 26bb
000000c0: 4b62 cc3c f579 993c 6966 bebc 081e 0b3d
000000d0: 96b5 013d 3eed ccbb 66b0 4bbb 300c b3bc
000000e0: 5d7d 203b f999 52bc be15 20bd d7db 02bb
000000f0: a3d8 a93b 9b8f fbbb 1bc4 c53c b488 863c

features.layer3.norm.weight f4 [64]
0.9951551 1.00793 1.0020446 0.9892946 1.0001237 0.9948778 1.0034777 1.0078883
0.9940044 1.0060118 1.0033127 0.9970355 1.0021013 0.99948317 1.0019395 1.001556
0.99408823 1.0046195 1.0023696 1.0002264 1.0099597 1.0025666 1.00339 0.9879042
1.003801 1.0057808 0.9996126 1.0063549 0.99828917 0.9942607 0.99658597 0.9935167
1.0011115 1.0072725 0.9938079 1.0034378 0.9971226 1.0058857 1.0096871 1.0053654
1.0042276 0.99777544 0.9888772 0.9923167 0.99609834 0.99685675 0.99384516 0.99988616
0.99873096 0.99311626 0.9912999 1.0015209 0.996694 1.0000064 1.0004406 1.0129793
1.0036287 0.9978925 1.0016403 0.99932384 0.99701864 0.99727356 0.99579495 1.000848
00000000: 7cc2 7e3f da03 813f ff42 803f 6942 7d3f
00000010: 0e04 803f 50b0 7e3f f571 803f 7c02 813f
00000020: 1377 7e3f ffc4 803f 8d6c 803f b83d 7f3f
00000030: db44 803f 21de 7f3f 8e3f 803f fd32 803f
00000040: 917c 7e3f 5f97 803f a64d 803f 6b07 803f
00000050: 5c46 813f 1a54 803f 156f 803f 4ae7 7c3f
00000060: 8d7c 803f 6dbd 803f 9de6 7f3f 3dd0 803f
00000070: e18f 7f3f df87 7e3f 4220 7f3f 1c57 7e3f
00000080: 6c24 803f 4eee 803f 326a 7e3f a670 803f
00000090: 6d43 7f3f ddc0 803f 6d3d 813f d0af 803f
000000a0: 888a 803f 366e 7f3f 0e27 7d3f 7808 7e3f
000000b0: 4d00 7f3f 0132 7f3f a36c 7e3f 8af8 7f3f
000000c0: d5ac 7f3f de3c 7e3f d5c5 7d3f d631 803f
000000d0: 5727 7f3f 3600 803f 700e 803f 4ea9 813f
000000e0: e876 803f e275 7f3f c035 803f b0d3 7f3f
000000f0: 9d3c 7f3f 524d 7f3f 6bec 7e3f ca1b 803f

features.layer3.norm.bias f4 [64]
0.0026404553 0.007780579 0.008357304 -0.002877069 0.0012829043 0.002765105 -0.00035094126 0.006221713
-0.0037781459 0.004967461 0.0024103264 0.001144711 0.00660131 0.0008462779 0.006954845 0.0015529295
-0.0032065816 0.012562832 0.005147962 -0.0011384205 0.0077627497 0.010019627 0.0043362156 -0.001556431
0.001705264 0.010855823 0.0059092203 0.008415273 -1.0451052e-05 -0.0044509484 -0.0055415775 0.0014223701
0.005212481 0.007188213 0.0023835967 0.0036032244 -0.0005095895 0.0034660967 0.010030002 0.0053930315
0.008745184 -0.0015298959 -0.0014236948 0.00065829954 0.0002966956 -0.0033752103 -0.0032760953 -0.00204139
0.0034159815 -0.005998009 0.0008281923 0.009223336 -0.0063109705 0.0034323924 0.00858751 0.017035687
0.0069992873 0.0023111373 0.00645659 0.0011559117 -0.0005854836 0.00064693025 0.0012875912 0.0018967307
00000000: 7d0b 2d3b 3af4 fe3b 13ed 083c 358d 3cbb
00000010: 2027 a83a c436 353b 8afe b7b9 83df cb3b
00000020: c59a 77bb 15c6 a23b 91f6 1d3b 210a 963a
00000030: cd4f d83b c0d8 5d3a 78e5 e33b ab8b cb3a
00000040: 8325 52bb 56d4 4d3c 3cb0 a83b 0e37 95ba
00000050: aa5e fe3b 5d29 243c d016 8e3b 2801 ccba
00000060: 2a83 df3a 9fdc 313c 22a2 c13b 37e0 093c
00000070: ed56 2fb7 43d9 91bb 1f96 b5bb d26e ba3a
00000080: 76cd aa3b 1a8b eb3b 1e36 1c3b 1324 6c3b
00000090: f995 05ba 7427 633b e154 243c 07b8 b03b
000000a0: f647 0f3c ca86 c8ba 459b baba bc91 2c3a
000000b0: cf8d 9b39 a232 5dbb c2b3 56bb d7c8 05bb
000000c0: a9de 5f3b f28a c4bb 0b1b 593a 7a1d 173c
000000d0: 42cc cebb fdf1 603b a1b2 0c3c 6d8e 8b3c
000000e0: 475a e53b 7376 173b cd91 d33b f681 973a
000000f0: 247b 19ba c196 293a 64c4 a83a b99b f83a

features.layer4.conv.weight f4 [64, 64, 3, 3]
-0.0015676524 0.0026900019 0.043173168 0.031110996 -0.03608757 -0.006669683 -0.02652147 -0.030393839
-0.03657061 0.0026196684 -0.025317337 0.015076909 -0.00013632549 0.03344256 -0.032943327 0.018540775
0.04056194 0.021953639 -0.031066412 -0.0028291927 -0.025504908 -0.006347859 -0.008704374 0.02455316
0.02392938 -0.024501069 0.0023742868 -0.024581758 0.02262495 0.012904252 -0.020954223 -0.037184525
-0.0040897974 -0.008009029 0.022756059 -0.0029867678 -0.01301963 -0.020598773 0.025082827 -0.024219273
-0.031179277 0.019512799 -0.017872712 -0.029729595 -0.009995195 0.010561667 -0.002093887 0.022123363
-0.035287492 0.021578835 0.025364965 -0.011558712 -0.031249886 -0.0072430456 -0.032569036 0.019335741
-0.026292097 -0.004697775 -0.011667908 0.0016809835 -0.012301 -0.032725703 -0.011883113 0.012494608
0.038426884 0.0056528244 0.013907884 0.0022432255 -0.029682456 0.0044828984 -0.027084356 0.039189756
-0.0037813927 0.03484136 -0.009835981 -0.0043010786 0.011920059 0.034551334 -0.028130602 -0.03030649
0.038075965 -0.03524937 0.008583172 0.019978525 0.030780727 -0.026961826 0.016857522 0.040236324
0.00479348 0.014151098 0.0058663134 -0.00021677402 0.011215919 0.030345555 0.011914776 0.016408231
0.020025428 0.02369522 -0.0051675253 -0.025695842 -0.029090142 -0.0137409335 -0.031808615 0.026825713
-0.004814289 0.028299382 -0.029955355 0.014228398 -0.02998446 0.011340429 0.0015156978 0.026787024
-0.02838431 -0.0019989132 0.025621664 -0.040769093 0.020180546 0.014720809 0.032143656 0.041342497
-0.014858876 0.038125373 -0.018394435 0.014221477 0.02409671 0.02180967 0.0027196445 0.023595413
-0.031630084 -0.008083338 -0.024999365 0.0126610445 0.020271884 0.009895883 0.0122787785 0.014915172
-0.000908797 -0.00081072387 0.021067819 -0.03730232 0.009876181 0.019154686 0.0115289325 0.04261004
-0.03164628 -0.026518194 0.033831153 0.0128629105 -9.073443e-06 -0.026672525 -0.025416713 0.040704038
-0.013405908 -0.020679206 -0.0036753677 -0.017521992 0.013821987 -0.01655087 0.01711542 -0.035731748
0.035945084 -0.0033641572 0.004410201 0.007136362 0.031340886 0.012038571 0.032541867 0.039015073
0.044312052 -0.024612498 0.020401228 -0.00092656096 0.0074367113 0.03162918 -0.007449355 -0.023209305
-0.021549327 -0.034101773 -0.0040657623 0.003838542 0.034693427 -0.008886559 -0.0026308564 0.0053045363
-0.0025610605 -0.035187006 -0.009433963 -0.002790657 -0.0054673897 0.014259345 0.0034294762 0.04578946
0.0001900425 0.004925594 0.0033333253 0.008726404 0.014749825 -0.031215055 -0.007179548 0.01726873
0.011047202 0.011268026 -0.032632533 -0.014088766 0.031232404 0.029790625 0.0072468356 0.003961735
0.0036367893 0.04006555 -0.0010803767 -0.034752462 -0.03858182 0.006392332 -0.020992083 0.016788168
-0.02406177 -0.025595358 -0.021349484 0.034317963 -0.011956 -0.039699618 0.009741706 0.00031569504
-0.002829461 -0.0041017425 0.0149419 -0.042605296 -0.036979187 -0.010267226 -0.0021535198 0.010723966
-0.005129953 0.036869474 -0.0017687851 0.0026859888 -0.028274374 -0.0058475896 -0.036483467 0.017010259
0.015772602 0.009368837 -0.008156857 -0.012160594 0.022541143 0.0328756 -0.013286155 -0.032229435
0.023351565 0.014474263 0.03474146 0.010782162 0.034266267 -0.0036485195 -0.02030981 0.0011539249
00000000: b079 cdba be4a 303b 59d6 303d 7ddc fe3c
00000010: 8fd0 13bd 5b8d dabb 8e43 d9bc 80fc f8bc
00000020: 10cb 15bd beae 2b3b 4e66 cfbc 2405 773c
00000030: 98f2 0eb9 11fb 083d 95ef 06bd d3e2 973c
00000040: 4724 263d 1ed8 b33c fd7e febc fa69 39bb
00000050: abef d0bc b301 d0bb ca9c 0ebc b523 c93c
00000060: 8c07 c43c 77b6 c8bc ec99 1b3b af5f c9bc
00000070: f657 b93c 5b6c 533c 31a8 abbc cd4e 18bd
00000080: b503 86bb 4d38 03bc ea6a ba3c a6bd 43bb
00000090: 4950 55bc c2be a8bc 807a cd3c 7f67 c6bc
000000a0: af6b ffbc 4ed9 9f3c cb69 92bc 7b8b f3bc
000000b0: e3c2 23bc d80a 2d3c 9839 09bb 0e3c b53c
000000c0: 9e89 10bd 19c6 b03c 30ca cf3c c160 3dbc
000000d0: c3ff ffbc 1257 edbb 1c67 05bd fd65 9e3c
000000e0: 8662 d7bc cbef 99bb c12a 3fbc 7254 dc3a
000000f0: 228a 49bc 630b 06bd 63b1 42bc 2fb6 4c3c
00000100: 8265 1d3d 543b b93b e5dd 633c 1403 133b
00000110: 9f28 f3bc 47e5 923b 03e0 ddbc 7085 203d
00000120: 3ed1 77bb d0b5 0e3d 1827 21bc 10f0 8cbb
00000130: 5a4c 433c b385 0d3d 2672 e6bc 5145 f8bc
00000140: 8bf5 1b3d a561 10bd 6fa0 0c3c 01aa a33c
00000150: dd27 fc3c 0cdf dcbc c918 8a3c d8ce 243d
00000160: a012 9d3b 02da 673c 343a c03b d54d 63b9
00000170: f9c2 373c 3e97 f83c 3136 433c 8e6a 863c
00000180: 5e0c a43c 7a1c c23c 5854 a9bb 1680 d2bc
00000190: 734e eebc a721 61bc c049 02bd 99c1 db3c
000001a0: 2fc1 9dbb 1bd4 e73c ef64 f5bc 3a1e 693c
000001b0: f8a1 f5bc 35cd 393c 61aa c63a 7670 db3c
000001c0: 3686 e8bc 3300 03bb 86e4 d13c 7efd 26bd
000001d0: ac51 a53c 8c2f 713c 11a9 033d c056 293d
000001e0: a572 73bc 5a29 1c3d edaf 96bc 3301 693c
000001f0: 7766 c53c 31aa b23c 103c 323b 2b4b c13c
00000200: 8c8e 01bd fa6f 04bc 78cb ccbc 4570 4f3c
00000210: 3911 a63c 5722 223c ee2c 493c c45e 743c
00000220: 563c 6eba c286 54ba 6b96 ac3c 51ca 18bd
00000230: b5cf 213c 4aea 9c3c d9e3 3c3c de87 2e3d
00000240: 889f 01bd af3c d9bc 8992 0a3d f5be 523c
00000250: 243a 18b7 5780 dabc b636 d0bc 47b9 263d
00000260: 74a4 5bbc 7067 a9bc 70de 70bb 488a 8fbc
00000270: 9e75 623c b195 87bc a335 8c3c 745b 12bd
00000280: 273b 133d 3179 5cbb 7383 903b 25d8 e93b
00000290: 4d5f 003d 6d3d 453c 9f4a 053d 45ce 1f3d
000002a0: 8e80 353d 26a0 c9bc 7a20 a73c 74e4 72ba
000002b0: a8af f33b 998d 013d b819 f4bb 7121 bebc
000002c0: 3788 b0bc 4dae 0bbd 163a 85bb 0c90 7b3b
000002d0: b21a 0e3d ee98 11bc 726a 2cbb add1 ad3b
000002e0: 77d7 27bb 4020 10bd e990 1abc 75e3 36bb
000002f0: ca27 b3bb 07a0 693c 10c1 603b bb8d 3b3d
00000300: 2546 4739 e166 a13b eb73 5a3b 31f9 0e3c
00000310: 40a9 713c b7b6 ffbc 6a42 ebbb 2777 8d3c
00000320: 53ff 343c 879d 383c b1a9 05bd 91d4 66bc
00000330: 19db ff3c 780b f43c dd76 ed3b 71d1 813b
00000340: 3357 6e3b c61b 243d 6d9b 8dba 9958 0ebd
00000350: f807 1ebd c476 d13b 97f7 abbc 5787 893c
00000360: 301d c5bc 5bad d1bc 1de5 aebc fe90 0c3d
00000370: 19e3 43bc 119c 22bd ad9b 1f3c df83 a539
00000380: 7a6e 39bb e967 86bb dfce 743c e482 2ebd
00000390: 7d77 17bd de37 28bc 1122 0dbb 93b3 2f3c
000003a0: 2a19 a8bb 7204 173d 94d6 e7ba 6a07 303b
000003b0: a99f e7bc 239d bfbb b06f 15bd 1959 8b3c
000003c0: 8b35 813c c07f 193c 57a4 05bc 3a3d 47bc
000003d0: 34a8 b83c 91a8 063d 2cae 59bc 0303 04bd
000003e0: c84b bf3c 7625 6d3c 104d 0e3d aaa7 303c
000003f0: c95a 0c3d 001c 6fbb c260 a6bc 4b3f 973a

features.layer4.conv.bias f4 [64]
-0.0010325761 0.011394697 -0.00042067416 -0.01065582 -0.033670098 0.020901108 -0.015190715 -0.03575175
-0.03822143 0.031289775 -0.018560238 0.030266196 -0.01427705 0.038334694 -0.027731922 0.012677639
0.03443963 0.021804808 -0.016752947 -0.017974457 -0.031749718 0.004990114 -0.006803413 0.015424687
0.02453128 0.02064366 -0.020239767 -0.010088361 -0.003411376 -0.0028297354 0.0340915 -0.017955555
-0.037674174 -0.010315047 0.033697467 -0.033841763 0.0336772 -0.0105771795 0.02631149 0.03744262
0.03939482 -0.027246512 -0.035626546 0.018375887 -0.000498699 -0.030094272 0.01581082 0.00037606966
-0.011844458 0.03445892 0.018283177 0.0063721472 0.016788239 0.015217406 -0.026578788 -0.019171556
0.027781954 0.021216048 0.04163037 -0.033105016 0.01954533 -0.0069012544 0.005073254 -0.026781438
00000000: 8157 87ba d3b0 3a3c ee8d dcb9 c095 2ebc
00000010: a8e9 09bd cd38 ab3c 7ae2 78bc 6d70 12bd
00000020: 138e 1cbd b529 003d a40b 98bc d0f0 f73c
00000030: 4aea 69bc d704 1d3d 0e2e e3bc dfb5 4f3c
00000040: 9210 0d3d ff9f b23c 7a3d 89bc 2b3f 93bc
00000050: fe0b 02bd 1c84 a33b 2aef debb d4b7 7c3c
00000060: d3f5 c83c e51c a93c decd a5bc a749 25bc
00000070: 6491 5fbb 1573 39bb 87a3 0b3d 8717 93bc
00000080: 3c50 1abd 7100 29bc 5b06 0a3d a99d 0abd
00000090: 1bf1 093d e84b 2dbc 328b d73c 6f5d 193d
000000a0: 765c 213d 1434 dfbc 24ed 11bd 0789 963c
000000b0: 20bb 02ba 4388 f6bc b185 813c 372b c539
000000c0: 420f 42bc cc24 0d3d 9ac6 953c 72cd d03b
000000d0: 7d87 893c 6d52 793c c2bb d9bc ab0d 9dbc
000000e0: fb96 e33c 47cd ad3c 9b84 2a3d 2099 07bd
000000f0: 871d a03c eb23 e2bb 8a3d a63b bf64 dbbc

features.layer4.norm.weight f4 [64]
1.024595 1.0177927 1.010777 1.0273474 1.0226244 1.0236394 1.0181173 1.0102702
1.0182639 1.0265317 1.0121554 1.0198345 1.0184604 1.0182558 1.0212224 1.0220926
1.0128882 1.0198221 1.0174364 1.011595 1.014436 1.0189313 1.008746 1.0228313
1.0263063 1.024481 1.0180813 1.0133682 1.0248454 1.0229214 1.0159568 1.014601
1.0094675 1.0159605 1.0118523 1.0259478 1.0245863 1.001139 1.0209987 1.0216608
1.0137444 1.0294687 1.0214595 1.0179721 1.0126872 1.0379202 1.0138105 1.0275357
1.0063719 1.0128593 1.0313617 1.0170884 1.0162903 1.0237157 1.0327554 1.0152336
1.0223842 1.0074558 1.0126442 1.0147899 1.0137328 1.020776 1.0191296 1.0165428
00000000: ee25 833f 0847 823f 2461 813f 1f80 833f
00000010: 5be5 823f 9e06 833f ab51 823f 8950 813f
00000020: 7956 823f 6465 833f 4f8e 813f f089 823f
00000030: e95c 823f 3556 823f 6ab7 823f eed3 823f
00000040: 52a6 813f 8889 823f 5b3b 823f f27b 813f
00000050: 0ad9 813f 576c 823f 971e 813f 23ec 823f
00000060: 015e 833f 3222 833f 7d50 823f 0db6 813f
00000070: 222e 833f 17ef 823f df0a 823f 72de 813f
00000080: 3b36 813f fe0a 823f 6084 813f 4252 833f
00000090: a525 833f 5325 803f 16b0 823f c8c5 823f
000000a0: 60c2 813f a1c5 833f 2fbf 823f e94c 823f
000000b0: bc9f 813f 92da 843f 8bc4 813f 4a86 833f
000000c0: cbd0 803f 60a5 813f a903 843f f42f 823f
000000d0: cd15 823f 1e09 833f 5431 843f 2df3 813f
000000e0: 7cdd 823f 50f4 803f 539e 813f a3e4 813f
000000f0: ffc1 813f caa8 823f d772 823f 131e 823f

features.layer4.norm.bias f4 [64]
0.023651987 0.022894233 0.005164014 0.018354706 0.012705802 0.024013495 0.009266808 0.006860015
0.014609836 0.028968923 0.011412466 0.021556431 0.011426038 0.002212358 0.017031746 0.018971289
0.012903413 0.01797574 0.012374775 0.0075140125 0.009022242 0.009783921 0.0073231235 0.0064702197
0.026965378 0.026437327 0.016582299 0.013339225 0.02058274 0.022008749 0.0142016215 0.0035904937
0.010926341 0.010853961 0.0076778745 0.02480127 0.014933685 -0.0010008392 0.016657654 0.01902149
0.013614411 0.016476618 0.01800777 0.007230839 0.008219273 0.032616932 0.014339175 0.017182993
0.0052374545 0.0071699107 0.021935597 0.012930124 0.008991343 0.019554444 0.030692725 0.016353207
0.020276068 0.010498096 0.007008792 0.013042306 0.00970249 0.016236993 0.019160433 0.010702367
00000000: d0c1 c13c b08c bb3c e436 a93b 9c5c 963c
00000010: ff2b 503c f3b7 c43c cfd3 173c fac9 e03b
00000020: 185e 6f3c 3c50 ed3c 5afb 3a3c 1d97 b03c
00000030: 4734 3b3c 35fd 103b 2986 8b3c ad69 9b3c
00000040: d668 533c dc41 933c 91bf 4a3c 1b38 f63b
00000050: 07d2 133c bd4c 203c d0f6 ef3b 2304 d43b
00000060: 7fe6 dc3c 1893 d83c 9ad7 873c c48c 5a3c
00000070: 229d a83c b14b b43c ebad 683c 7d4e 6b3b
00000080: 6504 333c d0d4 313c ae96 fb3b 082c cb3c
00000090: 6aac 743c 972e 83ba a275 883c f5d2 9b3c
000000a0: fa0e 5f3c f9f9 863c 0885 933c adf0 ec3b
000000b0: 21aa 063c 5599 053d dcee 6a3c 59c3 8c3c
000000c0: f49e ab3b 92f1 ea3b 48b2 b33c dfd8 533c
000000d0: 6d50 133c a430 a03c 4f6f fb3c 29f7 853c
000000e0: ff19 a63c 3500 2c3c 02aa e53b 65af 553c
000000f0: 31f7 1e3c 7103 853c 57f6 9c3c fb58 2f3c
